data.pth (torch, 5655 bytes, 6 tensors)

l1.weight f4 [8, 64]
000000 b3 3c 0e 3e 0b 5b 31 3f 4a 2e 8a bd 5e 74 eb be
       0.13890342 0.69279546 -0.0674711 -0.4598722
000010 7b 08 07 3f c4 43 31 3f 83 8e 0c be a8 19 0c 3f
       0.52747315 0.6924403 -0.13726239 0.5472665
000020 60 7b 5e 3f 85 d9 a6 bc fe f7 33 be 13 67 0e 3e
       0.86907005 -0.020367393 -0.1757507 0.13906507
000030 ee 5b e4 3e d4 8c 85 be 75 00 56 3f d0 db 7b 3f
       0.44601387 -0.26084006 0.8359445 0.9838228
000040 a5 9e c8 3c 93 ce e7 3d 76 77 19 be dd 32 11 be
       0.02448971 0.11318698 -0.14986977 -0.14179559
000050 12 ae d2 bc 70 a4 6d be b6 e5 ad 3e 47 21 30 3e
       -0.025717769 -0.23207259 0.33964318 0.17200194
000060 5b 46 c2 3e 96 4e d1 3d e5 1e 5c 3f be bb f1 be
       0.37944302 0.10220067 0.8598464 -0.47213548
000070 4b 18 1c 3f 65 76 f1 be e2 6d 69 be 7d f5 f1 be
       0.6097457 -0.4716064 -0.22795823 -0.47257605
000080 ff 10 f1 be 8d 22 da 3e 82 80 9f be 64 85 74 3e
       -0.4708328 0.42604485 -0.3115273 0.2387901
000090 c7 18 89 be de 73 de 3e 89 54 0d 3f 18 38 33 3f
       -0.26776716 0.43447775 0.55207115 0.7000747
0000a0 6a f1 ef bd 40 aa a1 be 69 10 81 3e a2 c4 6b be
       -0.11715968 -0.31575203 0.25207832 -0.23024228
0000b0 c8 dd 85 bd 74 b4 0b 3d b1 d0 f9 be 3b 3a 2c 3f
       -0.06536442 0.03410764 -0.4879203 0.6727635
0000c0 d6 1c 4c 3f e4 b6 19 bf 8c 4b b1 be d0 75 2f 3e
       0.797315 -0.60044694 -0.3462795 0.17134786
0000d0 29 27 9a be 95 a3 e3 3e 66 ed 37 3e a0 26 de 3e
       -0.30108002 0.4446074 0.17961654 0.43388844
0000e0 ea eb 91 3d 73 c8 0f 3f e2 9a 12 3f cb 4f 1e be
       0.07125075 0.56165236 0.5726758 -0.15460126
0000f0 69 b4 4e be 28 ec a9 3e 30 53 17 3f c7 cd 81 3e
       -0.20186009 0.33187985 0.5911131 0.25352308
000100 51 70 66 3e f0 27 c2 3e 1c a7 b3 3e f3 43 7a 3e
       0.22503783 0.37921095 0.35088432 0.24439983
000110 d6 b3 d4 3e 2c 06 1e 3e d6 6b 55 be 03 b0 a5 3e
       0.41543454 0.15432042 -0.20841917 0.3236085
000120 97 ff 65 3f a8 9f 12 3f d6 69 fc 3e 81 69 46 3e
       0.89843124 0.57274866 0.49299496 0.19376184
000130 1e 22 7f be 71 c9 35 be df a6 a5 3e 47 0b 63 3f
       -0.24915358 -0.17752625 0.32353875 0.8868908
000140 ad 78 c4 bd 30 e9 78 3e aa d3 0a bf 80 61 06 3f
       -0.095933296 0.24307704 -0.54229224 0.52492523
000150 45 7d fb be f2 91 d3 3d dc 0b 0f 3f 3e d3 16 3f
       -0.4911901 0.10330571 0.5587747 0.5891608
000160 40 9f 01 3f 66 9d a7 bd 53 05 70 3f f2 d1 fb be
       0.5063362 -0.08184318 0.93758124 -0.49183613
000170 bd 72 fa 3e 35 c9 fb be 6b 9c f0 be 04 75 fc be
       0.48915663 -0.49176946 -0.46994337 -0.49308026
000180 ef 61 fb be 5a f5 ab 3e 2b f3 11 3e 98 68 2d 3f
       -0.49098155 0.33585626 0.14252917 0.6773772
000190 95 6b 4f 3e bb 6f e7 3e 59 35 0b 3f 54 39 63 3f
       0.20255883 0.4520243 0.5437828 0.8875935
0001a0 70 60 f3 3d 2b 9a ef be 52 55 97 3e d5 1e d4 3e
       0.11883628 -0.46797308 0.29557282 0.41429773
0001b0 78 b2 a5 bb b5 a4 a2 3d e1 7c ea 3e f1 cb cb 3d
       -0.0050566755 0.079415716 0.457984 0.09951008
0001c0 87 04 60 3e 51 61 05 3f f5 3a 09 3f 09 55 a3 3e
       0.21876727 0.5210162 0.53605586 0.31900814
0001d0 46 b1 9d be 50 84 d6 3e d0 6c 5b 3e 60 5f a8 3d
       -0.3079931 0.4189782 0.21428227 0.08221316
0001e0 eb f7 c0 be 35 6b d1 3e 57 3b cc 3e 49 df 2d bd
       -0.37689146 0.40902105 0.39889023 -0.04244927
0001f0 0f 3d 6f 3e 3e b9 3e 3e e0 02 da 3e 57 bd ba 3e
       0.23363136 0.18625352 0.42580318 0.3647258
000200 78 f1 9a be 69 4f c9 3e df ed b9 bd 94 07 47 be
       -0.3026235 0.39318398 -0.090785734 -0.19436485
000210 22 75 c9 3e 26 7b d1 bc 4d 51 d3 3e f1 3c 59 3e
       0.39347178 -0.025571417 0.41272965 0.21214654
000220 4e 5f 4c 3f b2 a8 07 be ef 66 77 be 73 41 9f be
       0.79832923 -0.13247946 -0.2416036 -0.3110462
000230 7b 65 31 3f 81 d4 05 3f 76 1c 6e bd c7 52 39 3f
       0.6929547 0.5227738 -0.05813261 0.72391933
000240 04 fa 99 3e 6b e8 82 be b7 76 38 3f f5 66 e6 be
       0.3007356 -0.25567946 0.72056144 -0.45000425
000250 df f6 56 3f 47 4a 18 3f fb e1 25 bf 2a 08 ef be
       0.83970445 0.5948834 -0.64797944 -0.46685916
000260 0a b6 c9 be f8 3b ad 3e 75 77 4e 3f 9c 96 0c 3f
       -0.39396697 0.33834815 0.80651027 0.5491731
000270 0b e2 d0 3e 58 84 f9 3e 7c 34 96 3e 75 28 b8 3e
       0.40797457 0.48733783 0.29336917 0.35968366
000280 b7 04 03 3f de 62 c5 be 40 28 a9 3e d5 d8 38 3e
       0.5117907 -0.38551992 0.3303852 0.18051465
000290 34 5a 50 3e ca 27 02 3f 39 be ed 3e 13 8d 3b bf
       0.2034691 0.50841963 0.4643419 -0.7326214
0002a0 e3 4e 10 3f a5 b3 0d 3e ed 4b a6 be aa 68 be bd
       0.5637037 0.1383806 -0.32479802 -0.09297307
0002b0 d0 8d cd 3e 4c b3 35 bf b7 1f a5 be a8 83 7f 3d
       0.40147257 -0.7097671 -0.3225076 0.062381417
0002c0 17 51 bb 3d b1 e9 24 bf b9 c4 e3 be 24 1d db be
       0.09146326 -0.64419085 -0.44486025 -0.4279567
0002d0 1e 89 70 3e c2 20 14 3f fb 90 cf be 2f 42 c4 3e
       0.23489806 0.57862484 -0.405403 0.38331744
0002e0 95 b7 e6 3e 64 06 b9 be ea d7 dc be 2b 8d 2c 3f
       0.45061937 -0.36137688 -0.4313348 0.67402905
0002f0 b8 fc b1 bc 7b b2 cf 3e f6 77 20 bf 6d 27 2c 3e
       -0.021726951 0.40565857 -0.62683046 0.16811915
000300 bd 50 e6 3c 47 e7 cf 3d 2e 2f 0b 3e d7 c7 72 3e
       0.02811467 0.101515345 0.13592216 0.23709045
000310 3d 64 c2 3e e1 a1 87 be 8c a2 c5 3e f9 9d a2 3e
       0.379671 -0.2649069 0.38600576 0.3176115
000320 85 2d 2b 3f 82 a5 5f 3d 9b 8a d3 3c ce 80 07 3e
       0.6686633 0.0546012 0.025822928 0.13232729
000330 90 1c 11 bf 24 eb 00 bf 6d af 2b be eb 95 0d 3f
       -0.5668421 -0.50358796 -0.16766138 0.5530688
000340 4e 40 3a 3f 83 4a 03 3e 2f 46 84 3e da 05 bb 3e
       0.7275437 0.12821393 0.25834796 0.36527902
000350 68 9b ba 3e 24 a0 d6 be e5 b4 10 3f 4b bc 60 3e
       0.3644669 -0.41919053 0.56526023 0.21946828
000360 51 b4 16 3e 83 1b 50 3f 46 4d 28 3f 04 67 16 3f
       0.14717223 0.8129198 0.6574291 0.5875094
000370 a5 d5 8e 3d 3b 75 18 3f ad 52 be 3e b8 b1 3d 3f
       0.06974343 0.5955388 0.37172452 0.740993
000380 aa b1 40 3f 90 79 86 3d 51 4b aa 3e 1e 62 9d 3e
       0.75271094 0.06566155 0.33260587 0.3073892
000390 a1 ba b5 3e 3a 25 b8 3e d1 43 e3 3e 77 67 67 3f
       0.3549395 0.35965902 0.44387677 0.9039225
0003a0 ee 8e c0 be 67 ff bf 3e cb a4 4e 3e de e5 9e 3e
       -0.37609047 0.37499544 0.20180051 0.3103475
0003b0 30 ed 85 be db e3 ce be 21 af 40 3e 0f 42 85 be
       -0.26157522 -0.40408215 0.18816806 -0.2602696
0003c0 eb 0f 89 be 8e f4 fd 3e 40 de 5b 3e 47 a5 50 3d
       -0.26769957 0.49600643 0.214715 0.05093887
0003d0 fb d8 c8 3e 38 e3 c6 3e 45 06 6f 3d 59 6b 66 be
       0.39228043 0.3884523 0.05835559 -0.22501887
0003e0 49 d4 ae 3e 0e 5b 87 3e f3 cb 99 3e 3b e1 be be
       0.34146336 0.26436657 0.30038413 -0.37281212
0003f0 3e d1 3c 3e ea 9f 70 be 85 80 b5 3e 70 c4 35 3f
       0.18439195 -0.23498502 0.35449615 0.71002865

l1.bias f4 [8]
000000 7e 07 ef 3e 19 7d fc 3e 21 48 87 3f 1b d8 35 3f
       0.46685404 0.49314192 1.0568887 0.71032876
000010 2d d2 19 3f 6e 2d 3e 3f 53 df a6 3e e9 cd 11 3f
       0.6008633 0.7428807 0.32592258 0.5695482

l2.weight f4 [8, 8]
000000 50 e2 32 3f 6e c4 35 3f b1 94 93 3f 0e 43 2d 3f
       0.69876575 0.7100285 1.1529752 0.6768044
000010 ac 11 23 3f 9c 1c 20 bf ce c2 b3 bf 56 f9 8d bf
       0.6369884 -0.62543654 -1.4043825 -1.1091716
000020 52 b3 35 3f 12 db 65 3f 94 5a 72 bf 13 74 2b 3f
       0.70976746 0.897874 -0.9466946 0.6697399
000030 57 c7 63 3f e7 0d 98 3d 5d 3b 4a 3f 75 00 f1 3e
       0.88976043 0.07424527 0.7899683 0.4707066
000040 a3 06 80 3f d4 fa aa 3a f0 eb af 3f fe 07 56 3f
       1.0002025 0.0013044723 1.3743877 0.83605945
000050 91 7a 24 bf 47 83 67 bf 25 aa bf 3e 6d e4 9e bd
       -0.6424952 -0.9043469 0.37434497 -0.077584125
000060 7a 2e 5d 3f 34 ba bf 3e e4 9a 5b 3f 79 42 b6 be
       0.8639904 0.3744675 0.8578322 -0.3559759
000070 4e 1f 66 3f 1a c9 9d 3f 3a d8 a9 bf 88 26 d2 3f
       0.8989152 1.2326996 -1.3269112 1.6418009
000080 e6 7d 4e bf 20 00 7b bd 9f 67 92 3f 4d fa 0d 3f
       -0.80660856 -0.061279416 1.1437873 0.55460054
000090 60 45 59 bf a4 f7 bc 3f d4 f4 1b 3d e0 f1 2c be
       -0.8487148 1.4763074 0.038075283 -0.16889143
0000a0 0c 46 04 bf 45 bd 8b 3e 8d a1 d4 3c 09 f8 a1 be
       -0.51669383 0.2729284 0.02595594 -0.31634548
0000b0 f0 75 89 3f 92 34 b5 3f 32 0e a5 be ac 22 cf be
       1.0739117 1.4156668 -0.32237393 -0.4045614
0000c0 15 c3 89 bb 07 27 85 3f 43 ad c7 3e c5 c4 95 3f
       -0.004204164 1.0402535 0.38999376 1.1700674
0000d0 5e 1e 47 bf 1b 13 8e 3e be 25 85 3f 77 8b 29 bf
       -0.7778071 0.2774895 1.0402143 -0.6622843
0000e0 c4 7a 64 bf 5d 50 81 be 5f 26 80 3e ee 0f 67 3f
       -0.89249825 -0.25256625 0.25029275 0.9025868
0000f0 7f 3b 61 be 38 29 a8 3f 5a df cb 3f 94 44 fa bd
       -0.21995352 1.3137579 1.5927536 -0.122201115

l2.bias f4 [8]
000000 26 40 19 ba 42 48 bf bd 61 7c ff 3e a9 85 02 3f
       -0.00058460457 -0.09339954 0.4989958 0.509852
000010 62 c0 39 3f 5e 89 07 3f c8 8c c6 3e d6 92 38 3f
       0.7255918 0.5294398 0.38779283 0.72099054

l3.weight f4 [12, 8]
000000 13 16 94 be 93 64 9b be e8 a9 d0 bd 79 34 55 bd
       -0.2892309 -0.3035017 -0.10188657 -0.052051995
000010 39 5e 9f 3e 34 ad 18 3e 8e b5 31 3c 12 fa f1 3d
       0.31126574 0.14909822 0.010846509 0.11815275
000020 8d ba cf 3e 96 f8 62 bf 62 ab 98 3e d8 af 3d 3e
       0.40572014 -0.8866056 0.29818255 0.1852411
000030 cf 36 f7 be 05 e5 16 3f ac c4 94 bf 68 ac c9 bf
       -0.48284003 0.58943206 -1.162252 -1.5755739
000040 45 37 d9 be 55 6f 87 bf 36 ba d6 be b1 37 ca 3d
       -0.4242498 -1.0580851 -0.41938943 0.098739035
000050 ae 83 16 3f bf 0d 12 3f f8 98 62 3e 28 78 5d 3d
       0.5879468 0.57052225 0.22128665 0.054069668
000060 6e c9 b6 bf c8 07 17 3f a6 2a a8 3e 36 87 2b 3f
       -1.4280221 0.5899625 0.32845038 0.6700319
000070 59 af c5 bf 5f 55 8a bf 51 95 3c bf 1c c6 98 bf
       -1.5444137 -1.0807303 -0.7366534 -1.1935458
000080 f6 f4 bd bf ce d2 db 3e 18 0b 9a bf 44 f0 8f bf
       -1.4840381 0.4293427 -1.2034636 -1.1245198
000090 0d a5 a2 3d bf cc 17 3f 55 d6 c0 3e bf 4f 8f 3e
       0.07941637 0.5929679 0.37663522 0.2799053
0000a0 bc 71 31 c0 5d c1 d3 bd 36 ff a6 bf 5f 5a f1 3e
       -2.7725668 -0.103396155 -1.3046634 0.4713926
0000b0 b0 17 47 be 20 98 83 3f 01 00 ba bf 3d 11 73 3e
       -0.1944263 1.02808 -1.4531251 0.23737045
0000c0 36 3a 8c 3f ec 98 36 bf 68 e0 1c 3f 5b d5 d1 be
       1.0955265 -0.7132709 0.61279917 -0.4098309
0000d0 ab b1 d7 be 5f fb a5 bf b4 72 7e 3e 69 ea 64 bf
       -0.42127737 -1.2967337 0.24848443 -0.8942018
0000e0 fb 5b 14 bf e9 ed 34 bf de 00 34 3f c3 f4 d5 bf
       -0.5795285 -0.7067552 0.70313823 -1.671532
0000f0 28 24 ce 3e 83 52 9f bf 47 51 f7 3e 46 71 4b 3f
       0.4026196 -1.2447056 0.48304197 0.79469717
000100 c4 24 32 bf 8b bf 82 3f 2b f2 05 3e a7 19 59 bf
       -0.6958735 1.0214704 0.13080661 -0.8480477
000110 21 6d c0 bf ce 9d 71 bf 14 b9 05 3f 0b aa 79 3e
       -1.5033303 -0.94381416 0.5223553 0.24381272
000120 4f b9 e6 3d 88 4f 1f 3f e6 d1 88 bf 91 79 cc be
       0.112658136 0.6223073 -1.0689056 -0.39936498
000130 fb 05 7e bf 28 ec f1 3e bf 07 12 bf 93 3d 75 bf
       -0.99227875 0.47250485 -0.5704307 -0.9579708
000140 8d 10 45 bf 57 c4 6c bf 4c 84 b1 3e bc 4d 07 3f
       -0.7697838 -0.9248709 0.34671247 0.5285299
000150 00 d7 94 3e ef fa 82 be e4 c7 b6 be ae 61 0b 3d
       0.29070282 -0.25582072 -0.3569938 0.0340287
000160 9d 95 89 bf 08 16 56 bf cf 8b 58 bf cd 27 29 bf
       -1.0748783 -0.83627367 -0.8458833 -0.66076356
000170 57 cb 0f bf 3d 01 29 be af 68 06 bf 6e 71 28 be
       -0.56169647 -0.16504379 -0.52503484 -0.1644952

l3.bias f4 [12]
000000 4c 2e fc bc a5 63 dd be d1 20 8f be 48 7a 15 be
       -0.030783795 -0.43240085 -0.27954724 -0.14597428
000010 7c bb ff bd 49 34 08 be 6f e8 4c be ac 3b 84 be
       -0.12486932 -0.13301195 -0.20010541 -0.25826776
000020 f5 7f 3f be 83 a7 83 3d 4a f2 d0 bd 45 ea ec be
       -0.18701155 0.06428435 -0.10202463 -0.46272483
