data.pth (torch, 4375 bytes, 6 tensors)

l1.weight f4 [8, 43]
00000000: 4340 463f c94a 733b 5d87 f93c fef0 f53e
00000010: 7e68 363e 5f7a a3bc c5e7 ff3e 4a32 04be
00000020: 2918 ae3c 1758 263f d751 06bd 971e ddbb
00000030: 88e6 1d3d d8c7 603e 3370 02be ee43 883d
00000040: 4257 013f edc2 633f c387 0abe 0c3b 04be
00000050: 4571 11bd b24e 9dbe 8643 703c 664b a83e
00000060: 33d2 923d f0cf 4f3e 0d4d b43e 6594 dcbe
00000070: 88d8 a4bc 93d5 cf3c 1a51 423d fc61 2dbd
00000080: 49f6 f43c ac4e ecbd 3f92 d83e 08ca 513d
00000090: ddd5 283d 4ce9 41be fcdd 7ebe d954 97bd
000000a0: 9948 ee3d 467b 02bf db82 243e 56b8 773d
000000b0: 1157 0a3f 9c47 333e 5614 7dbe c3aa ac3e
000000c0: 8728 cebc 27f7 afbe 09fa 263e fa62 fe3e
000000d0: 9b0b b0be 67f5 2ebe 8bae 143f 83a5 c03e
000000e0: 2825 263e 3794 d2be a639 babe c5f9 afbe
000000f0: dc64 053e 2a17 443f 90ca 013f 0bf2 443f
00000100: 21c7 d73e b4b4 433e e629 a33e 0acf b73e
00000110: 8a14 a1be ce41 c6be 4e93 95be c800 a93e
00000120: fd7f 703e a4e5 c33e 5655 013f 1319 f43e
00000130: 748f e83e d0ed cebe 413f 9c3e 42c5 523e
00000140: 1305 cbbe e0bb 55be e13f 3c3e 66e5 ba3e
00000150: 380b 26bf 846f c73e 1a8f 56be b8c8 0bbe
00000160: 08bc 85bd 2d45 633e 872c 2b3e 5e99 cb3c
00000170: 4588 44bd f045 f5bb 3b72 c0bd 5789 5f3d
00000180: bfa7 2a3f 0712 87be 511b 2cbe ce78 423d
00000190: 0701 64be e4c5 2a3f 0b13 c03d ce63 a6be
000001a0: b197 1f3f 2b39 9a3e 8883 143f a156 3e3f
000001b0: 1994 c23e a652 41be a3a8 013e 38df 843e
000001c0: 61b5 8cbc 4994 d7be 7087 903e a8cd 4f3d
000001d0: 6719 913d 2e2f 3dbe 7d2a 9cbe ea26 bc3e
000001e0: da95 6c3e a6b1 6abd f33a c73e 1b4f 47be
000001f0: fb79 44be d810 5a3b 6e29 99bd db37 11bf
00000200: fc87 bf3e 7cb7 dc3e cad8 56be 16ef 5cbd
00000210: 690b 8a3e 195c d33e 4f3b 2bbd 8d70 0f3f
00000220: 4b8f 0fbe 0cdf 4ebd 8449 af3e 393c a03e
00000230: 4e4c dabe 7faf 2fbe ba20 e0bc 754a 94be
00000240: 2962 4e3e 7ea5 d03e 9a66 1e3f 4686 1a3f
00000250: b939 723e 55f3 143f 2096 263f ac58 7a3e
00000260: 8026 0cbe 58a3 e23d 2503 4f3e 772e 2e3e
00000270: 6281 1cbf b204 af3e e060 5ebe e297 13bd
00000280: 5985 59be aaae 6ebe f462 dc3d 0f39 b03e
00000290: 324a 2ebd 71a0 dc3e a7e1 09be bb19 7cbe
000002a0: 6042 e33b b64c 77be e267 1dbf b13d 5e3e
000002b0: 71f0 48bf 8c4a 7b3e 3493 da3d c927 febe
000002c0: 0d35 ac3e 0796 163f 8482 dabe c078 033f
000002d0: 2454 073e 73de efbe d147 a83e 9303 863c
000002e0: ce28 523e 56e1 9e3d 8125 2b3f f9ac bb3e
000002f0: 3fd2 e5be 3528 18bf bab4 2c3f c24d 983e
00000300: 7aca 1d3f aeda 003f 66bd 0c3f fe0a 033f
00000310: 9bc9 003f 7889 fcbe c869 9dbe 17ac 603f
00000320: 40c4 063f c75b 7d3d 21f9 9e3e 647e 8c3e
00000330: 46d9 043e 5f0e a13e 42e0 8fbe e1ef 3c3e
00000340: 8f07 023f 6a61 333f 23ae 253f 17a1 683e
00000350: 7867 ae3e d26f 013f d368 f63e 4f11 b6bd
00000360: 797f 8c3e fb08 083e 9af1 8f3e 8a85 23be
00000370: 2769 94bc 0532 c43e 53b7 84be 71b3 063d
00000380: 87ed 953e d061 09be 9ec6 973e ee59 833e
00000390: a075 ce3b 1ca3 133e ef3a 89be 387b 133f
000003a0: dc4b 25be b047 c7be d984 47be 20eb cdbe
000003b0: 32e3 cdbe 18da 0ebf 143d 5e3e 9bb0 b6bc
000003c0: a365 a53e b0af 203e 5feb 433f f21d d6bc
000003d0: e98f ac3c ee67 2b3e 1bc3 0f3e 2bce 053d
000003e0: 2f77 1fbe 6f29 fc3e 6abb 253e 3a75 61be
000003f0: 9855 423d 0d87 1abe 7e7f 60bc c428 06bd
0.77441806 0.0037123433 0.030460054 0.48035425 0.17813298 -0.019955812 0.49981514 -0.12909809
0.021251755 0.64978164 -0.032792892 -0.0067480314 0.03854993 0.21951234 -0.12738113 0.066535816
0.5052377 0.8896931 -0.13528351 -0.1291315 -0.035508413 -0.30724102 0.014664536 0.32870024
0.071689986 0.20294166 0.35215035 -0.43081966 -0.020122781 0.025370395 0.047440626 -0.042329773
0.029902594 -0.11538443 0.42299077 0.051218063 0.04121958 -0.18936652 -0.24889368 -0.0738923
0.11634941 -0.5096935 0.16065542 0.06047853 0.540391 0.17507786 -0.24714789 0.3372403
-0.02516581 -0.3436825 0.16306318 0.49684888 -0.34383854 -0.17085801 0.5807883 0.37626275
0.16225111 -0.41128704 -0.36372107 -0.34370247 0.13026756 0.76597846 0.5069971 0.7693183
0.4214411 0.19111902 0.31867903 0.35900146 -0.31460983 -0.3872208 -0.29213947 0.3300841
0.23486324 0.3826114 0.5052084 0.4767538 0.45421946 -0.40415812 0.3051701 0.2058306
-0.3965231 -0.2087245 0.18383743 0.36503142 -0.6486087 0.38952267 -0.20953026 -0.13650787
-0.06530005 0.22194357 0.16716205 0.024853405 -0.04798152 -0.007485144 -0.09396788 0.054574337
0.6666221 -0.2638094 -0.16807295 0.04747849 -0.22266017 0.6670821 0.09378632 -0.3249802
0.6234084 0.3012174 0.580132 0.74350935 0.38003615 -0.18879184 0.12661986 0.25951552
-0.017176332 -0.4210532 0.2822833 0.05073324 0.07084923 -0.18475029 -0.30501166 0.3674844
0.23104039 -0.057298325 0.38912162 -0.1946377 -0.19187157 0.00332742 -0.07478605 -0.56725854
0.37408435 0.43108737 -0.20981136 -0.053938948 0.2696183 0.41281202 -0.041804608 0.56031114
-0.14019506 -0.050505683 0.34235775 0.31295946 -0.4263634 -0.1715679 -0.027359355 -0.28963056
0.20154633 0.4075126 0.6187531 0.60361135 0.23654832 0.58183795 0.6507282 0.24447888
-0.13686562 0.110663116 0.20216043 0.17009912 -0.6113492 0.3418327 -0.21716642 -0.03603352
-0.21242274 -0.23308817 0.10761061 0.34418532 -0.042551227 0.43091157 -0.13464986 -0.2461919
0.0069354028 -0.24150357 -0.6148664 0.21703221 -0.78491884 0.24540156 0.10672608 -0.4963973
0.33634225 0.58822674 -0.426777 0.51356125 0.13215691 -0.46849403 0.32867292 0.016359126
0.20523378 0.07757823 0.668541 0.36655405 -0.44886968 -0.5943635 0.67463267 0.29746825
0.6163708 0.5033368 0.549765 0.5118865 0.50307626 -0.4932363 -0.30744767 0.8776259
0.52643204 0.061855104 0.31049445 0.27440178 0.12973508 0.31456277 -0.28100783 0.18450882
0.50792783 0.7007052 0.64718837 0.22717701 0.34063315 0.5056125 0.4812685 -0.0889002
0.27441004 0.13284676 0.28114015 -0.1596891 -0.018116547 0.38319412 -0.25921115 0.032885972
0.2928278 -0.13416219 0.2964372 0.25654548 0.006300643 0.1441769 -0.26802775 0.5760989
-0.1614222 -0.3892188 -0.19484271 -0.4021845 -0.402124 -0.55801535 0.21702987 -0.022301009
0.32304105 0.1569202 0.7653102 -0.026137326 0.021064715 0.16738865 0.1403927 0.03266732
-0.15572809 0.4925036 0.16184774 -0.22017375 0.04744491 -0.1509058 -0.0137022715 -0.03275372

l1.bias f4 [8]
00000000: 65bc f13e abfa af3e ccc1 d93e ffe7 333f
00000010: e41e 2f3f 08e9 cd3e 3ed5 ab3e 77eb 05be
0.47214046 0.34370932 0.42530668 0.7027587 0.6840651 0.4021685 0.33561128 -0.13078104

l2.weight f4 [8, 8]
00000000: e667 653f 0a38 673f a67f 903f dc8b 5a3f
00000010: 6175 01be d75b 10bf 6ab2 233f b18a c4bc
00000020: 18ca 79bc dbe7 4a3f 0a5e ea3e f34b 95bc
00000030: 1c23 8e3e 7de7 ddbe 3906 da3e a165 8bbe
00000040: 40f5 cfbe 775a 40be c478 813e 3aab c0bb
00000050: b332 8b3f fa9a 893e f3c1 86bf 9f70 77be
00000060: 44b6 2dbe cd8d 173f 0a91 323f 003c 293f
00000070: 8c88 0f3f 3d95 47bf bff7 3fbf ee59 373e
00000080: 93c4 783f 5d66 e7be 965f febc dd6f 113f
00000090: 9318 36bf 51b3 3e3f 2fa0 623f ea22 15be
000000a0: 97ed 5a3f 0230 67bf da42 ed3c 92fd 173f
000000b0: 83ba 753e 0de2 893f 586c 69be 2cb6 67be
000000c0: 112b 003e b3dc 483f f5aa 96bf b1bb 7dbf
000000d0: 53b6 6d3f dae0 623f 8054 a73e 3d43 aa3e
000000e0: a2a8 733f d6cc b7bd 14de 4b3f 2890 5a3f
000000f0: 50ef bbbe df92 5d3e 4dc5 5fbe 5149 1ebe
0.8961166 0.90319884 1.1288955 0.8536966 -0.12642433 -0.56390136 0.63944113 -0.023991914
-0.015245937 0.79260033 0.4577487 -0.018224692 0.2776116 -0.43340674 0.42582873 -0.27225974
-0.40616798 -0.1878451 0.2528745 -0.005879787 1.0874847 0.2687605 -1.0527939 -0.24164055
-0.1696406 0.59200746 0.6975256 0.6610718 0.5606773 -0.77962095 -0.74987406 0.17905399
0.9717495 -0.45195284 -0.031051438 0.56811315 -0.7113125 0.74492365 0.8852567 -0.145641
0.85518783 -0.9030763 0.028962541 0.5937129 0.2399693 1.077211 -0.22795236 -0.22628087
0.12516429 0.7846176 -1.1770922 -0.9911452 0.9285633 0.88624346 0.32681656 0.33254424
0.9517919 -0.08974616 0.7963574 0.85376215 -0.36706018 0.21638058 -0.21852608 -0.15457655

l2.bias f4 [8]
00000000: 3f1b dd3e 134d 35be 01b7 153f 1e60 56bd
00000010: 20ce 303e 67f2 153f a74e ac3e 05af b33e
0.4318485 -0.17705183 0.58482367 -0.05233776 0.1726613 0.58573 0.33653757 0.35094467

l3.weight f4 [4, 8]
00000000: 7dab 623e cb97 083f ec76 3dbf 8a2b 31bf
00000010: 87e3 0ebf 54e7 26bf 001d 473f 714b 00bf
00000020: 31a5 bc3e 52ba 8bbf 3d57 65bf fe06 64bf
00000030: fe17 683f fa91 1a3f 7b24 1cbf bc6f 1b3f
00000040: 9c28 eb3e 63f0 9a3e e25d 903e 7a2e 523f
00000050: a473 81bf b71a 4fbd 9637 3dbf 493b 8c3e
00000060: 91d9 3cbf 6300 84bf 5c52 873f 9f78 d9be
00000070: 18ae 70bf 0f67 e43e 3fec 333f d244 6fbe
0.2213573 0.5335662 -0.74009585 -0.6920706 -0.5581593 -0.6519673 0.77778625 -0.50115114
0.3684478 -1.0916235 -0.8958624 -0.8907317 0.9066161 0.6037899 -0.60993165 0.6071737
0.4592942 0.30261526 0.28196627 0.8210217 -1.0113416 -0.050562587 -0.7391294 0.2738898
-0.7376948 -1.0312618 1.0572009 -0.4247484 -0.94015646 0.44609877 0.7028236 -0.23366097

l3.bias f4 [4]
00000000: 6a41 253d 05ad 02be 0e3c f63d bd9e 9e3d
0.040345587 -0.12761314 0.12023173 0.07745121
